Assignment 2/softmax_best_model.pt (torch, 247059 bytes, 1 tensors)

W f8 [3073, 10]
0.0045150104815881425 -0.0012764869545320641 -0.003898273600475045 -0.008288264042939909 -0.032886673001386736 -0.013429898659594871 0.014210389255165453 -0.004835880206217816
0.04643762742658597 -0.0005487261725400426 -0.0045424733966783325 0.00435090554629659 0.010917162465662421 -0.0009621878201993189 -0.010158520069195813 -0.02714165287702849
0.017562215956665135 -0.018759615576495938 0.039710030842470836 -0.010977136495056957 -0.010817240852838363 0.011386934495096685 0.019063379627709476 0.00013723711799674257
0.001392423448169452 -0.02414723543535381 0.012055157366794836 -0.015938524681722945 0.030587471034470175 -0.023718711041062122 -0.004998684254591455 0.00942915483337188
0.012356937124209053 -0.002690579636625839 0.004688440831351826 -0.00782490892536627 0.0014924163049532867 -0.017862871292070447 0.032364416114305884 -0.026957817129326718
0.002738310793497782 0.013735139534339937 0.003660306171309849 -0.005335623474165933 0.0144128101746086 -0.0015803568148678008 -0.006443802742798635 -0.019694115805656765
0.026066977685477225 -0.02755813934293657 0.004274913413031502 0.0023580865228521675 0.007709463999187636 -0.0033053313691732812 0.005364951493397948 -0.004897320035145383
0.0005251757084521145 0.0001503568270064558 0.021549487224195293 -0.033731340776800185 -0.0014871589380873117 0.0034091223453701783 0.011077985578736595 0.004271456843850718
0.0019228531424730197 -0.0002192868237168865 -0.000938482389866254 -0.006940036963698229 0.01986026355049344 -0.030958718415759666 -0.007583720378106264 0.004406059397866597
0.012266376366944595 0.02153515828871393 0.002856592605517755 -0.005043120460593846 0.0013499221981706391 -0.022535927031910253 0.022352867178154618 -0.029604219389941032
-0.009854374572316152 0.009785910577045625 0.002080894857250024 0.015838161341194878 0.010165384752027499 -0.016372308487413677 0.0240985911335959 -0.029229779692504877
0.014519418813270655 -0.021025857477235697 -0.01261903913710759 0.01396839468708696 0.00021789665303808913 0.012373384775621171 0.016496384210369225 -0.0032233490319508212
0.01857028108497534 -0.027033462945308142 0.008401873297758215 -0.02715364609534125 -0.01157880881100357 0.005480842681406489 0.00012844567673031402 0.010596644856322683
0.014708440666334107 0.010156091014748216 0.013612629160493338 -0.027577212110134676 0.009859034633912666 -0.0253846450122961 -0.004387141048681713 0.008366178347190785
0.0029301360360039605 0.020468504730487804 0.004450178016012499 0.008117351663346213 0.000683632098451961 -0.020495094205021637 0.0039713617755876675 -0.02410812637602134
-0.008554089726816795 0.034414008005679064 -0.0021543771467740684 0.018491891692141035 0.0005141758122269266 0.00037551048243255724 -0.0013111954854372802 -0.021140534574283023
-0.0029331763092568667 -0.017700356910259642 -0.00793408390692461 0.025222300806667146 0.005547859283173986 0.014823872831990072 0.0019865022597855865 -0.004729038837370341
0.012672759803506753 -0.03426102073822381 -0.0005955372362962 -0.012732675833238671 -0.010140935547094308 0.013484280904079497 0.012941600503514871 0.012950010514623357
0.009818796331395277 -0.006885169717787637 0.0020967358519944765 -0.032662575938688404 0.0014879149005044153 -0.003085703949648273 -0.012623959868995952 0.010815858285187501
0.02405062493003226 0.016776434192050084 0.011837540860202368 -0.0131591145481161 -0.012167895733957495 -0.028492482489860943 0.008152590125190477 -0.00518959774129217
-0.01317590812234557 0.009783875395847214 0.014817645361523246 0.012660928488758926 0.01374992769918653 -0.013416656439472922 -0.009444869042759622 -0.024697288486479008
0.011281715510035583 -0.0015537468618983365 -0.009971762145034296 0.004435019584523134 0.0026499027090153126 0.007319191389390418 0.01386899716957606 -0.0036241995729107755
-0.00573656643011813 -0.02202301233493555 0.006577268759820751 0.00650255299219174 -0.013943925274868218 0.0015668402329702701 -0.014839874166933581 0.025152509051234895
0.014370519065828875 -0.005192709563191822 0.006636812616754037 -0.019925437405692484 0.002013325316751929 0.004154906113489445 -0.018920216958194604 0.006741931350784125
-0.01239283493070391 0.021609734737926798 0.016116758743628425 0.0010805716901268658 0.004169505277755934 -0.013389598500289009 0.00016710969279288824 -0.005180611960985112
-0.014392745901477494 0.01571438150734506 -0.0036856506582008098 0.014380257006406834 0.009792519219655885 0.005518901507985858 0.00029181120326720645 -0.02335206486023055
0.007130599653738958 -0.011394589090261973 -0.01571244643114808 0.0137336525114036 0.003804090432910028 0.008234199611166296 0.007238375847235701 0.01276187802063008
-0.00671780229940055 -0.02148053069691494 0.01491647487294205 -0.016775279797241405 -0.012503212663108398 0.009877073205965129 0.004002029727744298 0.01859138119415576
0.009807077112979125 0.0067939660717515745 -0.010003128152120677 -0.019151349193230176 0.012271197801784298 -0.019682573450651972 -0.011368294788563257 0.0214006724024415
-0.0009318453334565876 0.037918967270207556 2.6399716195650843e-05 0.00012249336870624186 -0.007825128131119942 -0.013464406298431748 0.011147796485365631 -0.03702768271795659
-0.01298130997457533 0.01646670603679351 0.002023917265431623 0.037276257025248685 -0.008244375699173244 -0.0006915538204089321 -0.004711033159393829 -0.0030359554155071074
0.013308392770220662 -0.0394101367764505 -0.014216102786751075 0.009629156180243575 -0.004966682326103986 0.035132968047316304 0.0029296984092221524 -0.009531675545860836
00000000: 3e96 c0e5 547e 723f 9d97 4d6e f9e9 54bf
00000010: 4f2f ffb3 45ef 6fbf 3a52 0af8 6ff9 80bf
00000020: 95c8 07a2 85d6 a0bf 7e9f 407c 2281 8bbf
00000030: 6b38 ea28 561a 8d3f ea4a 54b5 c9ce 73bf
00000040: d0b8 3336 acc6 a73f 321e 967b 0cfb 41bf
00000050: ee2c e8ea 209b 72bf 8c21 7850 41d2 713f
00000060: 3986 0abe bc5b 863f a9f0 349c 6a87 4fbf
00000070: fc9c c87b fdcd 84bf 3769 dd7d 05cb 9bbf
00000080: 5277 b75c d4fb 913f 37dc 8b7d b835 93bf
00000090: d247 9587 df54 a43f cbfe ff51 2e7b 86bf
000000a0: e131 917d 5927 86bf d7a8 107a 0852 873f
000000b0: ad7f 35c0 5985 933f fbf0 ffdd e9fc 213f
000000c0: 8a37 034b 3fd0 563f c443 ef89 0dba 98bf
000000d0: f5ae 1bd5 5fb0 883f ba98 0449 3052 90bf
000000e0: 6ea5 0a6f 5252 9f3f f606 e6c0 b749 98bf
000000f0: d810 5816 8079 74bf 2824 1bbd 974f 833f
00000100: 451e 9e06 984e 893f 8cad 7df1 8d0a 66bf
00000110: b460 a3c0 2f34 733f cdd3 6d7f 8106 80bf
00000120: 19d5 31ce a573 583f e663 0c00 a54a 92bf
00000130: 75b8 8799 1192 a03f 729d c47b d49a 9bbf
00000140: 704a bd69 a76e 663f 8e0f d938 2b21 8c3f
00000150: ed69 92e9 37fc 6d3f f87a 3485 ceda 75bf
00000160: 7e48 bfa2 7684 8d3f 35dc 7e35 7fe4 59bf
00000170: ead4 ac20 d164 7abf cd58 3cbd b12a 94bf
00000180: 91a3 a842 4db1 9a3f 56b8 dd6c 3338 9cbf
00000190: cfd1 d554 9282 713f d2b0 e50f 4451 633f
000001a0: b16f f07b f593 7f3f 9ae1 4144 c813 6bbf
000001b0: c91f 5733 8ff9 753f d052 3956 360f 74bf
000001c0: d5c7 083f 7e35 413f 4edc 374f 23b5 233f
000001d0: cc73 7e9b 1111 963f 1122 f9fa 3b45 a1bf
000001e0: e1ca 31c0 985d 58bf 22db 679f 72ed 6b3f
000001f0: ee3e 210e 0eb0 863f 40b7 3577 f27e 713f
00000200: b7e6 29d7 0781 5f3f 2654 fd78 0bbe 2cbf
00000210: 797b 0f96 8fc0 4ebf d080 acfc 276d 7cbf
00000220: 86da c1b9 3f56 943f d6ae 7c6c a4b3 9fbf
00000230: 6879 1870 1b10 7fbf 4704 4a90 160c 723f
00000240: f80e b12a 1d1f 893f 2dc0 4102 500d 963f
00000250: 27be 327a b566 673f f82a 2b57 18a8 74bf
00000260: ced1 5eec fb1d 563f ed2f 5976 a813 97bf
00000270: d50d 0286 abe3 963f 36e3 6988 9150 9ebf
00000280: 28c6 15c4 872e 84bf d6b3 1eaf a20a 843f
00000290: c738 77eb f30b 613f c3f1 f403 e137 903f
000002a0: 625e 7dd8 96d1 843f c3c9 0d06 e7c3 90bf
000002b0: 1ca2 3113 4dad 983f aaf5 644f 69ee 9dbf
000002c0: f2ec ad67 5bbc 8d3f f6b9 f068 cd87 95bf
000002d0: b9e1 34c3 02d8 89bf 6d88 de32 769b 8c3f
000002e0: ba73 56ff 658f 2c3f a3ef 9d97 3757 893f
000002f0: d83e be9a 6de4 903f 8955 a055 da67 6abf
00000300: 14ff bf77 1604 933f f7ab fdfc a8ae 9bbf
00000310: 02e3 4f58 0035 813f 4b5e c957 2ace 9bbf
00000320: f2f2 5b69 a1b6 87bf 937a 2381 1473 763f
00000330: ca7f 34f6 ebd5 203f 2984 d798 b1b3 853f
00000340: abb3 187d 751f 8e3f 74bc 1b76 b7cc 843f
00000350: 4685 7428 f0e0 8b3f eaf3 8260 333d 9cbf
00000360: f310 953a f930 843f 42f1 97b0 6efe 99bf
00000370: c580 3b35 40f8 71bf c445 2673 4922 813f
00000380: 99a8 51ce f000 683f 0770 a919 b2f5 943f
00000390: 4476 a490 593a 723f a4c4 647f d49f 803f
000003a0: 1836 afc0 b866 463f aa24 5b7d aafc 94bf
000003b0: 0dd2 254f 4644 703f a250 69f9 ccaf 98bf
000003c0: f464 fd7c ce84 81bf b03d d17d b69e a13f
000003d0: 6ac6 6f6c 0ea6 61bf 7c55 3cd8 89ef 923f
000003e0: dfe0 2126 38d9 403f ae4f c93d 059c 383f
000003f0: d9a4 a16e 8d7b 55bf 874c 7742 dda5 95bf
00000400: 620a 4b0a 5107 68bf 8776 3ad8 0a20 92bf
00000410: f64f 3bb7 be3f 80bf 2ec7 60f4 dfd3 993f
00000420: 4fd6 f122 5ab9 763f 0e91 1b88 fa5b 8e3f
00000430: 089a a747 ff45 603f ac49 5eb2 c15e 73bf
00000440: 68be 3f07 2df4 893f b34d 3217 a98a a1bf
00000450: 9266 0a7a ba83 43bf 80c9 5ad2 9613 8abf
00000460: 1275 3454 c5c4 84bf c2dd f18b a59d 8b3f
00000470: b32b 5d37 2081 8a3f e132 25fd 8885 8a3f
00000480: 4811 0989 e01b 843f 06b3 3eac 9f33 7cbf
00000490: 5e91 347d 2c2d 613f b468 eb2e 26b9 a0bf
000004a0: c6ba 8f75 c460 583f 4367 90b1 3047 69bf
000004b0: 224f 4436 97da 89bf 4387 e7ec 9f26 863f
000004c0: 3666 171e baa0 983f 9a1c cb70 d72d 913f
000004d0: 3487 e0d6 473e 883f ac1e 0775 2af3 8abf
000004e0: 036b e851 7beb 88bf 8839 e721 222d 9dbf
000004f0: 1c1c b91f 4eb2 803f 2f7e 4009 b041 75bf
00000500: b337 d873 f8fb 8abf 7090 d386 9109 843f
00000510: 200c dab1 b658 8e3f 99a5 5e0e f9ed 893f
00000520: dcad 520e ec28 8c3f 1c9c 0825 317a 8bbf
00000530: afaf 3add d457 83bf 20b0 65f9 3e4a 99bf
00000540: 195c 4439 de1a 873f b4c5 51fd e274 59bf
00000550: d60d 5f42 136c 84bf 3d8f 2981 742a 723f
00000560: dc32 21af 3fb5 653f 08d8 687a bafa 7d3f
00000570: 9b54 2c4a 5967 8c3f 8f7a 7954 7fb0 6dbf
00000580: 1bca 56d3 397f 77bf e5a9 f356 338d 96bf
00000590: 57e4 8623 c4f0 7a3f a04f 12c7 6ba2 7a3f
000005a0: 4675 44f8 a18e 8cbf 0a28 c1e3 cdab 593f
000005b0: 9035 ca31 5e64 8ebf a04b 264f 94c1 993f
000005c0: c471 506b 4a6e 8d3f e749 065c f344 75bf
000005d0: 4add 37d2 332f 7b3f b453 1078 5567 94bf
000005e0: 2677 88cc 3f7e 603f 7696 011e bc04 713f
000005f0: 8a51 4644 d25f 93bf daac 9d6a 6d9d 7b3f
00000600: 1957 db25 6a61 89bf 9905 e6bf dc20 963f
00000610: 4ab8 e25e e980 903f d729 7c04 3fb4 513f
00000620: f174 ef0c 0b14 713f 118f 527d 016c 8bbf
00000630: 9601 ae54 45e7 253f af93 21ef 4338 75bf
00000640: 2366 92a7 f179 8dbf 4289 9a4a 6e17 903f
00000650: fb95 53a1 5e31 6ebf e49c 676c 6573 8d3f
00000660: 55da 59ae 190e 843f 944b c9d7 fc9a 763f
00000670: a28b 1b93 c71f 333f 7d9c 798b 9ae9 97bf
00000680: f6d2 04c5 f934 7d3f dfc7 f3db 0b56 87bf
00000690: 586b 3f6e ec16 90bf 91fc 20a3 6320 8c3f
000006a0: 8b12 0380 c129 6f3f 683f 4f90 17dd 803f
000006b0: 4dfa a3b8 fca5 7d3f ad88 df45 e622 8a3f
000006c0: faa8 d452 2084 7bbf a83a 6003 fefe 95bf
000006d0: 97d3 015e 878c 8e3f 0d0d 71f8 892d 91bf
000006e0: 8626 ddcb 489b 89bf d5d3 3253 6e3a 843f
000006f0: dec2 c5ac 6e64 703f af8f dd78 9e09 933f
00000700: 41bb c19b bb15 843f 2fb4 6961 fdd3 7b3f
00000710: 001f 2b22 857c 84bf 6b38 d649 699c 93bf
00000720: b568 ee49 a421 893f 2930 1625 ab27 94bf
00000730: b815 a0b2 4248 87bf 66d6 52d0 0eea 953f
00000740: 3050 b69d e288 4ebf 99b3 a568 1d6a a33f
00000750: 846b d5ae 9eae fb3e 3499 6f06 320e 203f
00000760: 1407 48eb 9e06 80bf 17cf b105 3a93 8bbf
00000770: 64eb 9dea a7d4 863f c8fc a3dc 4af5 a2bf
00000780: 2e7b 66ee f195 8abf b07e 9aef a5dc 903f
00000790: 24f5 df4e 7694 603f 9a74 aea1 df15 a33f
000007a0: 7ff5 0760 6de2 80bf 7ae2 6285 2ca9 46bf
000007b0: 1978 9955 e04b 73bf 7f4e 1827 dcde 68bf
000007c0: fdf0 ae3d 6e41 8b3f 58e6 2bc1 902d a4bf
000007d0: 6888 5d04 551d 8dbf a3ca 0e77 73b8 833f
000007e0: 8a55 90a2 f157 74bf 289d 8cc9 f2fc a13f
000007f0: a421 5adb 0500 683f aae5 f6d5 5785 83bf
