Assignment 2/svm_best_model.pt (torch, 247039 bytes, 1 tensors)

W f8 [3073, 10]
000000 16 aa 1b c8 06 2a 81 3f 59 81 f9 7b a7 70 53 3f
       0.008380940419972876 0.0011865268314964121
000010 f4 78 23 6b bf 36 39 3f 64 61 3f a0 a8 b9 87 bf
       0.0003847329454752656 -0.01158458460842899
000020 de e5 e9 29 a6 ee 98 bf 6a fd 77 9c a8 8d 8b bf
       -0.024347873981673256 -0.013453786158605669
000030 19 dc 3a 51 61 6a 82 3f 88 db 2d 21 7c 79 64 bf
       0.008991966525497873 -0.002499334755551034
000040 25 d2 fc 5f 02 d0 a0 3f 48 5b 8f ae fb 10 1b 3f
       0.03283698484156997 0.00010324989456421158
000050 3c a8 68 60 51 c0 58 bf bf ec 78 db 9c df 70 3f
       -0.0015106959050492771 0.004119503711588367
000060 6d f3 3c bc b4 6d 8f 3f 37 2a f0 63 00 7c 57 3f
       0.015345966333933448 0.0014333728611314442
000070 74 35 22 4a 15 24 7f bf d7 a7 b5 70 7a 54 a0 bf
       -0.007602770960273165 -0.03189451814507976
000080 c2 5b 2f a8 6d cb 8d 3f 4d e0 ad da b2 56 89 bf
       0.014548165030573549 -0.0123723958001706
000090 81 f7 48 19 e8 b6 9a 3f 76 d7 ed a7 3a b4 80 bf
       0.026088358443522978 -0.008156259774960022
0000a0 d5 31 41 d0 21 51 84 bf aa f7 44 f0 24 77 70 3f
       -0.00992037216942602 0.004019874850483088
0000b0 e4 45 9e e4 1a b8 99 3f 7a 14 0c 50 5a 5e 6e 3f
       0.025116367534399844 0.0037071002883544675
0000c0 77 ba 03 60 14 98 53 3f f3 6b 00 13 3d 7e 99 bf
       0.0011959265685238787 -0.02489562443234301
0000d0 44 56 61 5f a3 97 8d 3f 56 03 27 38 35 0f 89 bf
       0.014449383114121812 -0.012236037994513598
0000e0 1a 60 e8 16 12 71 92 3f bc f6 f8 f1 6f e9 93 bf
       0.018009455345321702 -0.019445180076437238
0000f0 56 64 cb 9c 8b 31 78 bf 48 9b 8f 75 db cc 72 3f
       -0.005906625138515661 0.004589898359859408
000100 32 b7 90 57 d0 d1 92 3f 94 50 55 9f b1 de 2e bf
       0.018378501267014964 -0.00023551862947590997
000110 de 7e 26 6f 6f ab 69 3f 4d c8 24 cb d1 26 81 bf
       0.0031335045288897042 -0.008374823581650892
000120 2a 1e 72 aa 7d 34 69 3f 00 5e 9a 47 12 13 8e bf
       0.0030767874155264345 -0.014684813318395662
000130 75 24 eb c6 7b ef 95 3f a8 84 f9 6b 59 ea 95 bf
       0.021421369567893273 -0.021401784148456088
000140 78 7e 69 26 d3 bd 66 3f a9 db d6 45 7a cc 81 3f
       0.002776062395511588 0.008690791374517408
000150 ee ac 2b ff a4 dc 82 3f e9 9c d9 20 67 bf 6b bf
       0.009209908520878742 -0.003387166426182743
000160 81 49 74 94 fc 94 80 3f 84 05 9a 4f 5f 74 75 bf
       0.008096669464553898 -0.005237934406637893
000170 8f 87 d3 62 fe f0 6a bf b6 7d 2f 7a e2 8c 91 bf
       -0.0032887428738925316 -0.017138994891750158
000180 99 18 cd 66 51 a8 94 3f dc 26 3b 6d ad 5e 94 bf
       0.020173332118496565 -0.019892415801939886
000190 8e 2e 10 7c 6d 44 7d 3f a7 31 e3 d9 a1 f5 6a bf
       0.007145335840515478 -0.0032909546999688346
0001a0 31 af 8d 35 c6 ab 88 3f f3 3d 2e 58 78 64 72 bf
       0.012046383389779787 -0.004490346999673533
0001b0 1a 6c e3 9b 96 f6 5d 3f 82 51 3d 25 38 d5 7b bf
       0.0018288107672137567 -0.0067951386625576555
0001c0 0d 8b 75 fb 18 af 72 3f 79 d3 d8 5b 9b 81 60 bf
       0.004561517321550535 -0.0020149263716810442
0001d0 2f 52 f6 8f 0c 01 94 3f b8 58 bd a3 4f 36 9d bf
       0.01953525189090238 -0.028527492874979216
0001e0 b4 77 0b 6e ee bc 47 3f 14 d0 36 25 2f 70 41 3f
       0.0007244266708672426 0.0005321722223272673
0001f0 b1 20 22 51 e1 6a 8d 3f d0 c9 5a 1b 47 12 6a 3f
       0.01436401394700257 0.0031825436406844668
000200 a5 0d 3e ae 23 37 51 3f d0 c2 45 13 46 f0 66 bf
       0.0010507439082808403 -0.0028001183183551173
000210 48 7a 2f 83 c3 c8 4a 3f d4 ec af b4 81 53 7a bf
       0.0008173899317361422 -0.006427294410055146
000220 1c eb 8a 35 3a 65 91 3f 38 33 15 7c b2 1d 9d bf
       0.016987714307769783 -0.02843359834996592
000230 e5 c7 06 af cb ab 7b bf 18 3f 02 46 64 96 63 3f
       -0.0067556339640066675 0.002391048285126273
000240 a8 39 38 8f 87 23 90 3f 4c 9f b0 d3 99 c3 94 3f
       0.01576053439753769 0.020277408166435237
000250 1f 32 6b eb fd 3d 54 3f fa b1 ee be ae 14 7e bf
       0.0012354831393849364 -0.007343943215272203
000260 cf 19 f1 c4 87 9d 63 3f 66 8c f8 3a 0d a1 95 bf
       0.0023944522613732265 -0.02112217590741885
000270 3d aa ab a2 d9 ff 93 3f 9f 95 78 50 2d 00 9b bf
       0.01953067832338661 -0.026367862736284328
000280 02 4a 05 a7 68 82 77 bf 97 ab 4b 51 93 82 81 3f
       -0.005739601896794346 0.008549834173626354
000290 4f 58 ab ee b5 78 84 3f 94 75 8f 69 a4 04 8c 3f
       0.009995862337216858 0.013680729361960776
0002a0 1a a5 10 ab 03 56 77 3f f4 94 c9 5c 2d 91 8e bf
       0.0056972640314054915 -0.014925341028354279
0002b0 00 3f 90 d9 e2 13 96 3f ef 1e 98 4b 10 9f 9e bf
       0.021560234574336867 -0.02990365468397632
0002c0 0a a6 67 bd 30 ce 8a 3f 2c 48 38 85 9b 86 96 bf
       0.013088589458635464 -0.021997861867994725
0002d0 db ff ff dd b7 7c 7e bf c3 49 0d 73 ac 3f 84 3f
       -0.007443159323884142 0.009887072812181047
0002e0 4a 24 a0 1c b4 fd 70 3f 24 c5 2e dd f0 58 88 3f
       0.004148200570861136 0.011888391256294435
0002f0 be 13 4d d7 ab 47 8a 3f f4 cb b0 e4 25 b7 61 bf
       0.012832014568297963 -0.0021625270942648937
000300 de 35 87 63 62 a6 92 3f 8a 8a 72 46 88 0d 9a bf
       0.018212830853192467 -0.0254422467229554
000310 4a 81 60 c2 0f 9a 82 3f 38 5f 80 26 b7 bf 9f bf
       0.00908291160527654 -0.031004773831312366
000320 aa aa e2 eb cd dc 7d bf e6 ee db 98 dc 06 66 3f
       -0.007290653591705146 0.0026888187920784843
000330 f7 d9 ce 02 84 3a 42 3f 78 65 83 5c c6 4f 8a 3f
       0.0005562920174416165 0.012847470949440817
000340 6a 19 67 84 ef 41 89 3f c4 71 2f 2b b9 ae 89 3f
       0.012332793453322128 0.012540289526378319
000350 a3 a2 9d 79 ab 99 88 3f bb 9f ef f6 9c 66 9a bf
       0.01201185192958693 -0.025782063075808753
000360 32 65 eb f2 28 b7 82 3f ec 44 ab 9c 1e bd 9d bf
       0.009138412392916882 -0.029041746437376156
000370 be 2c f3 15 20 0b 17 3f 90 63 9a be cd 62 62 3f
       8.790381751848633e-05 0.002244378895579442
000380 4e 70 be c6 08 cd 65 3f 81 8d 3a 83 32 bc 98 3f
       0.002661244527145035 0.024155415782514126
000390 c1 81 71 36 41 fc 68 3f 16 0a 98 d7 e2 db 82 3f
       0.0030499719319296574 0.009208461956409269
0003a0 12 0a 0e 65 f4 3e 56 bf 53 26 e8 b4 3b 5e 91 bf
       -0.0013577829997478735 -0.016961033741642883
0003b0 b1 51 d5 6a 0c d1 6f 3f 06 06 8e a3 73 9f 9b bf
       0.0038838617826206447 -0.026975447518912808
0003c0 ff 5e 1a 97 d9 93 72 bf a9 a1 45 bc 79 9d 9c 3f
       -0.004535531961344707 0.0279444714700802
0003d0 46 2a b5 39 c8 97 74 bf 6d 06 de eb 36 ea 95 3f
       -0.0050275632195942496 0.021401270052143696
0003e0 f3 cc ab b8 8c fb 64 bf cd 01 cc 94 9e 80 61 bf
       -0.002561354490688944 -0.002136525849323534
0003f0 7c e9 4b fb 5a 69 54 bf dc e4 02 3d 3c c4 8f bf
       -0.0012458218090488351 -0.015511007892529731
000400 5d e3 e7 ea 06 ef f7 3e 0b cd f1 ec 0d ca 92 bf
       2.282495432301704e-05 -0.018348901354738916
000410 d7 40 6e 88 e6 6b 61 bf 09 d6 e2 75 1f b5 99 3f
       -0.0021266462894758797 0.025104991502948013
000420 0e 94 27 a7 0d 73 53 3f a0 0b b8 95 0e f3 8b 3f
       0.0011870988206450525 0.013647188133296073
000430 c0 7e e3 10 80 88 35 3f f9 97 3c e5 dd 61 86 bf
       0.00032857061968448106 -0.010928853567360607
000440 76 e1 b9 11 7d 8f 8c 3f 9e a6 b6 5a 76 ce 9c bf
       0.01394555769296411 -0.0281313412539591
000450 a1 5e c8 db 80 1c 71 3f 93 8b 74 1f b7 9d 91 bf
       0.004177573541276709 -0.0172031987141384
000460 35 48 9f a3 cf c5 73 bf 08 d2 74 29 6c a1 91 3f
       -0.004827319231440132 0.01721734049825055
000470 ee b3 b0 a6 9f 38 84 3f 3d 97 7e 35 96 e6 8a 3f
       0.009873626017077055 0.013135121829531133
000480 f5 8e 45 64 53 8b 87 3f f3 fe 26 d0 23 c3 8c bf
       0.011496211526441405 -0.014044074811749385
000490 a5 86 41 15 8a 4e 52 3f b1 d0 18 e6 03 63 9d bf
       0.0011173580615139536 -0.02869802562618479
0004a0 72 00 82 40 2b f0 72 3f ed c2 b1 ae 9a 40 84 bf
       0.004623574212132652 -0.00988884778618756
0004b0 50 53 6b 6f 19 d9 7e bf 16 ba 5a 39 77 c0 86 3f
       -0.007531260830280953 0.011109286725823824
0004c0 a6 b0 3b 5d fd a6 97 3f 8d 37 41 b3 c9 1e 94 3f
       0.0230979526667602 0.019648696485368645
0004d0 27 66 43 76 bc 8c 90 3f 47 cc 85 54 15 10 92 bf
       0.016161865919320697 -0.01763947800050072
0004e0 f4 c8 a3 e2 42 cb 8b bf e2 45 cb 0a e1 3b 9c bf
       -0.013571283856866213 -0.027572170528236024
0004f0 1c c0 92 91 64 b3 81 3f df 22 f5 c3 26 49 89 bf
       0.008642945950072138 -0.012346556525373696
000500 8a 6d 99 39 fc 18 85 bf df 61 e3 d4 d8 27 8b 3f
       -0.010301561839858992 0.013259595867951056
000510 64 93 f3 04 21 57 88 3f 7a 43 f4 0e 6e e8 89 3f
       0.011884935344321064 0.012650356131901342
000520 16 5e 61 46 60 5c 8d 3f 7c 5e f2 69 22 3c 8f bf
       0.014336349628293592 -0.015251416071165418
000530 13 c8 00 c7 14 0e 77 bf a5 ff 4c aa 67 50 99 bf
       -0.005628663217111213 -0.02472078301366278
000540 39 5e d8 5a 99 df 89 3f bd d7 a0 c1 74 23 82 bf
       0.012633512577891458 -0.00885668960482266
000550 70 18 61 d1 62 86 83 bf 14 b7 79 b7 78 ad 79 3f
       -0.009533664717434415 0.006268950986493289
000560 42 59 d7 e3 fb fc 60 3f 44 fe 31 b1 fc 7e 55 3f
       0.0020737571455626 0.0013120143601382953
000570 6b c6 d5 8e b3 f3 8d 3f b5 1c b6 0f e2 94 79 bf
       0.014624979778747623 -0.006245501568066182
000580 76 ee e5 39 21 5e 64 3f 80 65 52 c4 65 7b 93 bf
       0.0024862908314256483 -0.019025411708388784
000590 da 6f 91 fa ef 8a 7e 3f 75 a0 73 26 1d fb 42 3f
       0.007456719796291334 0.0005792515120477531
0005a0 d8 2f 59 10 49 a1 89 bf ab 82 93 9b 77 4f 4a 3f
       -0.01251465874806705 0.0008029302618091835
0005b0 9e 6d 36 15 8a 41 8b bf a9 77 61 15 ba 06 97 3f
       -0.013308600208623397 0.02248659854409821
0005c0 19 66 ec ec e0 a5 8b 3f a6 bd d5 f5 42 0c 6b bf
       0.013499982099847195 -0.0033017452066627815
0005d0 23 64 23 55 f8 7b 8b 3f 44 cb 84 c0 d4 98 90 bf
       0.013420047853673072 -0.016208004236612852
0005e0 95 d7 11 78 14 b2 2d bf ef af 56 b0 42 13 73 bf
       -0.00022655963769907238 -0.0046570401222360966
0005f0 45 10 5c 53 13 e5 8d bf b1 30 62 04 96 57 7b 3f
       -0.014597083074029746 0.006675325397861241
000600 c7 05 cd 09 6a a7 89 bf 47 ee 19 94 e9 b6 95 3f
       -0.012526348518465803 0.021205567993531706
000610 a0 16 c5 c9 b9 9d 91 3f 70 56 bf 1d 70 f0 06 3f
       0.01720323843007654 4.375307227603715e-05
000620 9c 4d 32 c6 d0 60 7d 3f d3 75 41 6c 4d c2 84 bf
       0.007172408603895699 -0.010136227480127246
000630 dd 24 68 f1 41 5f 63 bf e5 d1 e1 4e 93 f4 89 bf
       -0.0023647582959297323 -0.012673521847525524
000640 98 1e ad b0 08 ec 80 bf 2b 1e a7 9b b6 86 87 3f
       -0.008262699023944095 0.011487414002558335
000650 52 0b ea a3 95 7c 77 bf df 40 cd 57 f2 22 88 3f
       -0.005734047443754902 0.01178540544938794
000660 b5 1f 2d 4c 90 ae 82 3f bd 98 9c 0f e9 84 77 3f
       0.009122016262736435 0.005741987604585383
000670 03 b8 57 55 b4 88 6f 3f 73 cc 4f 01 19 be 92 bf
       0.003849365438092002 -0.018303290085850365
000680 e6 4e c6 aa 11 d7 7d 3f b4 c0 dc 19 09 60 91 bf
       0.007285183918060522 -0.01696790905333563
000690 8f ed 00 f6 17 4d 8f bf e6 7f cc 4e ee 9a 88 3f
       -0.015283763117728081 0.012014257220982882
0006a0 eb e8 5e 48 e8 a1 5e 3f 67 8b b5 17 8e 4c 82 3f
       0.0018696564088558864 0.008935079668565838
0006b0 aa 52 1b e0 85 3f 72 3f 2b be 14 17 bd 28 90 3f
       0.004455111456725428 0.015780405553583215
0006c0 12 8c 02 5d e4 24 75 bf 05 52 dc 63 f5 19 91 bf
       -0.005162136120051579 -0.016700586528786605
0006d0 89 d6 84 7d 10 42 91 3f be bf 13 a1 21 4e 97 bf
       0.016853578244271836 -0.022758985000961955
0006e0 56 1a 1d 7a db ba 8e bf 3f 41 b4 bc 88 a6 83 3f
       -0.01500483957682978 0.009594982394020788
0006f0 af bd e7 41 06 c9 72 3f 0c c2 ea fb 03 36 89 3f
       0.004586243098386885 0.012310057759664005
000700 92 27 59 fa 98 79 77 3f c4 92 f8 f8 72 62 84 3f
       0.00573119885445718 0.00995340177821314
000710 56 b0 b6 4e 28 39 7a bf c0 b4 42 b2 08 66 87 bf
       -0.006402165843081139 -0.011425083103257072
000720 bb ef a5 29 0d 2d 8c 3f 7f 43 64 83 4c a7 97 bf
       0.013757803758146161 -0.023099132079611003
000730 43 dc 22 d1 78 a5 87 bf 1a c6 fc 26 9c 55 86 3f
       -0.011546081430749427 0.010905475559044798
000740 a1 19 50 20 ce 14 62 3f 52 9d 99 eb 0d 4f a0 3f
       0.00220718630817203 0.03185313702561622
000750 78 bf 67 81 bb 0a 50 bf ec 7b 91 a9 c3 d9 6e 3f
       -0.0009791213138860815 0.003765947487905921
000760 c2 fc 51 4c c8 0c 81 bf f0 2c 07 d2 ea 15 76 bf
       -0.00832516177092513 -0.005391995684884451
000770 a8 83 b7 0b 3d 96 89 3f 7e 03 3b 69 6c e9 a1 bf
       0.01249358837134358 -0.03498400482704421
000780 a0 d5 23 c7 18 c5 84 bf 20 28 a3 91 88 f5 71 3f
       -0.010141557290334557 0.004384549591302217
000790 4c 35 75 55 74 a2 7d 3f 9f e6 15 58 26 d5 a1 3f
       0.007235006741507743 0.03482932877791466
0007a0 39 27 77 1c b8 6e 80 bf a4 23 92 d7 04 dd 68 3f
       -0.008023680084892614 0.003035077531027901
0007b0 73 e4 58 4f 05 33 78 bf 18 c9 95 74 e0 87 19 bf
       -0.005908032171242461 -9.739215342622167e-05
0007c0 db 09 84 cc f0 ff 8a 3f 34 43 a2 17 bb b5 a3 bf
       0.013183480492902902 -0.0384958711957836
0007d0 12 4d 1b a3 79 f6 8a bf 56 38 51 33 f5 d6 57 3f
       -0.013165426530952238 0.0014550585303996408
0007e0 68 d2 17 a5 a8 08 3c 3f 8a b0 2c 4c 02 e1 a0 3f
       0.00042776219660759516 0.032966682242062964
0007f0 8b d1 55 e2 b3 9f 45 3f dc 5a 96 19 84 8a 6f bf
       0.0006599071827353848 -0.003850229270664014
