Assignment 3/overfit_deepconvnet.pth (torch, 112160 bytes, 10 tensors)

W1 f4 [8, 3, 3, 3]
-0.2205887 -0.16259108 -0.6280879 0.03859678 -0.03905185 -0.10863361 -0.00048071385 0.010740478
-0.13530876 -0.13720486 -0.43565166 0.32070205 0.027904179 -0.07513326 0.24855776 0.3222077
0.038661096 0.33606339 0.21646008 0.0980326 -0.20964171 -0.29442638 -0.16624677 -0.21559505
0.12581483 0.092963584 0.5297072 0.2428352 0.10057766 -0.052417815 0.28961468 -0.009356072
-0.05810305 -0.035082184 -0.1853171 -0.09244054 -0.03252503 0.14099637 0.23367931 0.33582506
0.072596736 0.18443626 0.36996883 0.1446197 0.020720089 0.20051862 -0.26263198 -0.111449234
-0.104432166 -0.005742313 0.06046834 -0.05841094 0.05867629 -0.31656897 0.08370152 0.16934599
0.008341477 -0.04754082 -0.07704155 0.24355075 0.1854725 0.1059878 0.14695244 -0.21542747
0.01354836 -0.13416676 0.13734826 -0.25448063 -0.1881894 0.063323565 0.15375574 -0.06259087
-0.10738986 -0.06963841 0.21065177 -0.33443537 0.07843623 0.005507137 0.12954052 -0.062196583
-0.04113745 0.11360771 -0.6318545 0.07745684 -0.075551085 0.24900876 -0.0066184932 0.018427912
0.06339009 -0.0031153662 0.16079742 0.3396327 0.04844656 0.055191487 0.22368647 -0.19104917
0.008096883 -0.2548247 -0.13689637 -0.10615033 0.043386847 0.051692948 0.08325178 0.19087236
-0.29971328 0.13044901 0.20677257 -0.11301459 0.03207072 -0.18424447 -0.42876184 -0.10606566
0.31555688 0.07516979 0.14944193 -0.2961458 -0.07834408 -0.38372585 0.22001487 -0.028411433
0.35034564 -0.24943365 0.3136278 -0.108418114 -0.21114433 -0.08003543 -0.1702347 -0.14690857
-0.263564 -0.21096483 -0.20931639 0.38519344 -0.34925565 0.23287396 -0.44847342 -0.23586635
-0.0039014441 -0.20929822 -0.036812913 -0.07952232 0.081519686 0.050794344 0.11024774 -0.13954459
-0.2589544 -0.060025856 -0.15232138 0.22728911 -0.17543237 -0.10424855 -0.053466227 -0.006974575
0.029291978 -0.34291112 -0.10216739 -0.20801212 0.19703875 0.21801597 0.09945742 -0.14216198
0.05935231 -0.08994743 -0.13848336 0.29200524 0.16056572 -0.027116148 -0.18205616 0.32263696
-0.045925427 0.2066211 0.09397481 0.105348915 -0.32269576 0.2165458 -0.16891651 0.4549747
0.1485258 -0.016308699 0.25831056 0.20223477 -0.18440899 0.5180453 -0.0911992 0.14038134
0.0067151394 0.26176587 -0.08119243 0.14083755 0.20064919 0.13523822 -0.05974988 0.008412042
0.05592236 -0.182026 -0.08326276 -0.010113811 0.15214512 0.12660754 -0.16899009 -0.0027029063
0.028712593 -0.20772302 -0.1328769 0.055415817 -0.05460007 -0.35123348 0.0025976447 0.13601951
0.17354771 0.37346247 0.11131712 0.18634062 -0.13348371 0.4208849 0.20642275 -0.16232763
00000000: 01e2 61be 477e 26be 5eca 20bf a817 1e3d
00000010: d5f4 1fbd 4c7b debd 5208 fcb9 d4f8 2f3c
00000020: 618e 0abe 6e7f 0cbe bc0d dfbe 0f33 a43e
00000030: 4e97 e43c 77df 99bd ed85 7e3e 68f8 a43e
00000040: 195b 1e3d 8010 ac3e b6a7 5d3e 51c5 c83d
00000050: 51ac 56be 0ebf 96be 983c 2abe f3c4 5cbe
00000060: 9ad5 003e b163 be3d e49a 073f caa9 783e
00000070: a9fb cd3d 10b4 56bd 6048 943e 364a 19bc
00000080: 77fd 6dbd 56b2 0fbd c4c3 3dbe 7751 bdbd
00000090: f738 05bd 5a61 103e a149 6f3e 43f1 ab3e
000000a0: 99ad 943d dcdc 3c3e 8e6c bd3e 3017 143e
000000b0: 2dbd a93c c154 4d3e b377 86be 7f3f e4bd
000000c0: 88e0 d5bd 032a bcbb a6ad 773d 4f40 6fbd
000000d0: 8d56 703d 5415 a2be b46b ab3d 0969 2d3e
000000e0: b1aa 083c 2aba 42bd f6c7 9dbd 5e65 793e
000000f0: 81ec 3d3e 2210 d93d b37a 163e 0599 5cbe
00000100: f1f9 5d3c 0363 09be 06a5 0c3e 494b 82be
00000110: b9b4 40be c9af 813d 2572 1d3e a42f 80bd
00000120: 37ef dbbd 959e 8ebd 19b5 573e 1d3b abbe
00000130: 2da3 a03d 3775 b43b 45a6 043e d8c1 7ebd
00000140: be7f 28bd 29ab e83d 37c1 21bf b1a1 9e3d
00000150: 87ba 9abd 27fc 7e3e f2df d8bb 22f6 963c
00000160: aad2 813d 2c2b 4cbb 14a8 243e 56e4 ad3e
00000170: e66f 463d 7810 623d 110e 653e 65a2 43be
00000180: caa8 043c 6278 82be 902e 0cbe 5865 d9bd
00000190: 68b6 313d fcbb 533d e97f aa3d 0b74 433e
000001a0: 0574 99be 6d94 053e 30bc 533e 3274 e7bd
000001b0: 965c 033d 95aa 3cbe ac86 dbbe f438 d9bd
000001c0: ac90 a13e 9ef2 993d 4e07 193e 6ca0 97be
000001d0: dc72 a0bd b777 c4be 944b 613e 18bf e8bc
000001e0: 8160 b33e 896b 7fbe d393 a03e 510a debd
000001f0: 3836 58be 9ee9 a3bd 0152 2ebe 336f 16be
00000200: dcf1 86be 2a07 58be 0957 56be 1338 c53e
00000210: a3d1 b2be 8376 6e3e 4f9e e5be f386 71be
00000220: 5faf 7fbb 4652 56be 23c9 16bd 99dc a2bd
00000230: cbf3 a63d bb0d 503d 91c9 e13d c7e4 0ebe
00000240: ac95 84be acdd 75bd 23fa 1bbe 7abe 683e
00000250: 8ba4 33be 4480 d5bd 67ff 5abd fa8a e4bb
00000260: bbf5 ef3c 0c92 afbe 233d d1bd 2101 55be
00000270: 87c4 493e 943f 5f3e 55b0 cb3d e992 11be
00000280: 681b 733d 5c36 b8bd 95ce 0dbe b681 953e
00000290: 576b 243e af22 debc ee6c 3abe ac30 a53e
000002a0: 4d1c 3cbd 7b94 533e dd75 c03d 2cc1 d73d
000002b0: 6138 a5be 2fbe 5d3e 73f8 2cbe 72f2 e83e
000002c0: 2617 183e d299 85bc 4841 843e a216 4f3e
000002d0: b6d5 3cbe 9e9e 043f a5c6 babd 20c0 0f3e
000002e0: ac0a dc3b 2d06 863e 3748 a6bd b837 103e
000002f0: fb76 4d3e e37b 0a3e 4abc 74bd a9d2 093c
00000300: d80e 653d 0665 3abe aa85 aabd 66b4 25bc
00000310: eecb 1b3e 68a5 013e bd0b 2dbe 3e23 31bb
00000320: ac36 eb3c 58b5 54be e210 08be b2fb 623d
00000330: 53a4 5fbd e0d4 b3be 3f3d 2a3b b348 0b3e
00000340: 7eb6 313e 7936 bf3e 3bfa e33d 13d0 3e3e
00000350: f4af 08be 3a7e d73e 7c60 533e 3739 26be

b1 f4 [8]
-0.02061098 -0.024132121 -0.029397776 -0.08814979 -0.08406631 -0.068177514 -0.066826284 -0.10241459
00000000: 5cd8 a8bc bab0 c5bc 9bd3 f0bc e187 b4bd
00000010: f52a acbd a7a0 8bbd 38dc 88bd bebe d1bd

W2 f4 [16, 8, 3, 3]
-0.115124986 -0.26747313 0.031067243 -0.29333654 0.13787593 0.028231334 -0.10942225 -0.3493242
0.0392381 0.08302345 -0.32649288 -0.12159526 0.008340406 -0.05289641 -0.21310839 -0.15114932
-0.19868547 0.2748016 -0.2461206 0.24454878 0.006084609 -0.14258227 0.0017087347 -0.08672094
-0.06623051 -0.19510776 0.16462253 -0.19661824 0.023958448 0.11889796 0.28027993 -0.06337615
-0.1297856 -0.23364641 0.45896855 -0.1278297 -0.17716525 -0.07336635 0.3432597 0.3040072
-0.2002946 -0.033019155 -0.13173585 -0.17021257 0.37902048 -0.13021511 -0.15321358 -0.017393451
-0.46550432 -0.31492627 0.2915255 -0.098884024 -0.51839393 0.40077758 0.09234607 -0.46880242
-0.2725554 -0.112267524 0.12648413 -0.12051758 -0.20642902 0.015022525 0.0013104898 0.0049921637
0.33315027 -0.33049604 -0.07301331 -0.08228567 -0.005276858 -0.080008455 -0.28305936 0.101840585
-0.09833147 0.07389155 -0.3581111 -0.20127329 0.16976278 -0.42119536 -0.02699916 -0.13145773
-0.25504115 0.027990654 -0.0059635304 0.14602372 0.13313888 0.033890583 -0.12884927 0.016804758
-0.008300049 0.1408351 -0.07668033 -0.13846485 0.071729 -0.043805264 0.35563117 -0.18260635
-0.23997267 0.035772696 -0.17181 -0.07746932 0.020416552 -0.10044203 0.006156105 -0.22119085
-0.1554322 -0.06560054 0.1051969 -0.15584216 -0.1975998 -0.16574724 -0.2889653 -0.071736984
-0.18511651 -0.09662722 0.2839239 -0.29165536 0.14840703 -0.36651486 -0.032631487 0.04030459
0.085539475 -0.19721985 0.028421145 0.30117136 -0.030157035 -0.022489794 0.2954849 -0.0860173
0.07433521 0.23896436 -0.21948622 0.2539069 -0.25914678 0.14880213 0.030083511 -0.13491628
0.2041939 0.124087445 -0.22265877 0.24246593 -0.26243424 0.2433905 0.4232677 0.14208628
0.17707628 -0.2921177 -0.17778592 -0.098165356 -0.21576412 0.1361577 -0.06292339 -0.42308897
-0.21647973 -0.22395314 -0.3060147 -0.057641324 0.0014064492 -0.10278099 -0.12401583 -0.18037905
-0.23275837 -0.06913784 -0.4825596 0.33190265 -0.17396225 -0.06176731 0.092613585 -0.029380742
0.05686678 -0.111983836 -0.35369918 0.15041602 -0.13807505 0.104015976 0.08729738 -0.360444
0.45729566 -0.17232397 -0.0968459 0.069143154 -0.080506265 -0.019613283 0.15332691 -0.3626328
-0.19225569 -0.085564576 -0.18686083 -0.03688042 -0.09186241 -0.09096259 -0.15512455 0.047324512
0.12598921 -0.29624444 0.08463575 -0.21014482 -0.19510934 0.005759479 0.14115408 0.048763633
0.011202662 0.23459463 -0.19140135 0.13816707 -0.027866976 -0.07246358 -0.2871701 -0.2029732
-0.0394455 0.15507983 -0.13949136 0.020320442 -0.22341116 -0.42104807 -0.38769287 -0.16577613
0.23928547 0.08176598 0.07284231 -0.17812414 -0.10395898 -0.084968895 -0.1771958 0.055333186
0.2331881 -0.012950244 0.14880955 0.037221715 -0.11390709 0.07896873 -0.37459272 -0.4317621
-0.31478673 -0.2434481 -0.12483889 -0.25215727 -0.41992277 0.20553958 0.10810126 -0.15195206
0.2052604 0.33297175 -0.045733083 0.23734108 -0.1672632 0.29440635 0.15899011 0.109453365
-0.21993694 -0.034783054 -0.10058365 -0.2533185 -0.15193471 0.025058398 -0.35411024 0.08005161
00000000: a6c6 ebbd 3df2 88be bb80 fe3c 3530 96be
00000010: 592f 0d3e 6645 e73c c618 e0bd 9fda b2be
00000020: 21b8 203d 3308 aa3d 132a a7be f006 f9bd
00000030: 33a6 083c e8a9 58bd 1639 5abe e3c6 1abe
00000040: 3474 4bbe ccb2 8c3e 0a07 7cbe ff6a 7a3e
00000050: 6661 c73b 1601 12be 9ff7 df3a c09a b1bd
00000060: dda3 87bd 54ca 47be cf92 283e 4b56 49be
00000070: 8244 c43c c680 f33d da80 8f3e 5bcb 81bd
00000080: 84e6 04be 0141 6fbe edfd ea3e cae5 02be
00000090: cf6a 35be 1941 96bd bcbf af3e d5a6 9b3e
000000a0: 071a 4dbe 183f 07bd c3e5 06be 344c 2ebe
000000b0: f90e c23e 1c57 05be 05e4 1cbe b67c 8ebc
000000c0: 9556 eebe 043e a1be d542 953e b583 cabd
000000d0: 77b5 04bf b832 cd3e f01f bd3d df06 f0be
000000e0: 628c 8bbe 84ec e5bd 0e85 013e ecd1 f6bd
000000f0: 2162 53be 0921 763c bec4 ab3a 4e95 a33b
00000100: ac92 aa3e c736 a9be 0188 95bd 6485 a8bd
00000110: 7ee9 acbb 79db a3bd 28ed 90be cc91 d03d
00000120: 0262 c9bd 7454 973d 575a b7be 961a 4ebe
00000130: 4bd6 2d3e eba6 d7be 582d ddbc db9c 06be
00000140: c194 82be a84c e53c b869 c3bb 3e87 153e
00000150: 8f55 083e dad0 0a3d 10f1 03be 22aa 893c
00000160: eefc 07bc 1437 103e 940a 9dbd bbc9 0dbe
00000170: a7e6 923d 266d 33bd 4a15 b63e 29fd 3abe
00000180: 65bb 75be 6486 123d f6ee 2fbe 3ca8 9ebd
00000190: 9d40 a73c 8db4 cdbd 27b9 c93b db7f 62be
000001a0: 9e29 1fbe 9359 86bd 7971 d73d 1695 1fbe
000001b0: 9a57 4abe a5b9 29be 43f3 93be d7ea 92bd
000001c0: 2f8f 3dbe 7ee4 c5bd 795e 913e da53 95be
000001d0: 03f8 173e d6a7 bbbe 98a8 05bd 6d16 253d
000001e0: 522f af3d 00f4 49be 76d3 e83c 2233 9a3e
000001f0: e30b f7bc 843c b8bc cc49 973e d729 b0bd
00000200: 0f3d 983d 13b3 743e ffc0 60be 1600 823e
00000210: e3ae 84be 965f 183e b271 f63c 7e27 0abe
00000220: 3518 513e 8f21 fe3d a900 64be fd48 783e
00000230: c85d 86be 5c3b 793e 8bb6 d83e 117f 113e
00000240: 7c53 353e 7490 95be 830d 36be eb0a c9bd
00000250: 45f1 5cbe ed6c 0b3e fadd 80bd 1e9f d8be
00000260: ddac 5dbe f953 65be f5ad 9cbe 4f19 6cbd
00000270: 9b58 b83a d77e d2bd 03fc fdbd 49b5 38be
00000280: 3658 6ebe 2498 8dbd 0d12 f7be 25ef a93e
00000290: 2923 32be b8ff 7cbd 31ac bd3d e2af f0bc
000002a0: 24ed 683d c857 e5bd 0f18 b5be a806 1a3e
000002b0: 8c63 0dbe 5406 d53d f8c8 b23d 1e8c b8be
000002c0: a822 ea3e b275 30be 2557 c6bd ed9a 8d3d
000002d0: 78e0 a4bd 09ac a0bc bb01 1d3e 02ab b9be
000002e0: adde 44be 7b3c afbd 7258 3fbe ec0f 17bd
000002f0: 5c22 bcbd 984a babd f8d8 1ebe 59d7 413d
00000300: 5103 013e 5aad 97be 8255 ad3d 3430 57be
00000310: beca 47be 03ba bc3b b28a 103e 60bc 473d
00000320: 5f8b 373c 9339 703e b7fe 43be ab7b 0d3e
00000330: 4949 e4bc c967 94bd f607 93be 35d8 4fbe
00000340: 9b91 21bd 3fcd 1e3e d3d6 0ebe 0e77 a63c
00000350: e5c5 64be 9d93 d7be ae7f c6be 38c1 29be
00000360: 4007 753e ec74 a73d 592e 953d 2d66 36be
00000370: 72e8 d4bd 2c04 aebd d172 35be 0da5 623d
00000380: dcc8 6e3e 432d 54bc 8861 183e cc75 183d
00000390: 1f48 e9bd 5cba a13d 9eca bfbe ec0f ddbe
000003a0: ba2b a1be 754a 79be 88ab ffbd c21a 81be
000003b0: 1e00 d7be f878 523e 3264 dd3d 5299 1bbe
000003c0: c82f 523e 467b aa3e 9d52 3bbd 8a09 733e
000003d0: 0b47 2bbe 6ebc 963e 4ece 223e 1629 e03d
000003e0: 2637 61be ad78 0ebd cdfe cdbd f6b2 81be
000003f0: c694 1bbe 4547 cd3c f04d b5be 19f2 a33d

b2 f4 [16]
-0.12025148 -0.024642512 -0.1196131 0.011653981 -0.035131775 -0.028858416 -0.034257557 -0.015049645
-0.03083723 -0.13647489 -0.054897297 0.010140345 -0.0547552 -0.036578856 -0.10519315 -0.01329198
00000000: 6846 f6bd 18df c9bc b7f7 f4bd 57f0 3e3c
00000010: 56e6 0fbd 7c68 ecbc a751 0cbd c992 76bc
00000020: 5c9e fcbc 13c0 0bbe fddb 60bd b123 263c
00000030: fd46 60bd b6d3 15bd 826f d7bd 9bc6 59bc

W3 f4 [32, 16, 3, 3]
0.46479097 -0.21401864 -0.14297372 -0.019980894 -0.054328777 -0.12089465 0.12104332 0.07588051
-0.22985834 0.0042386428 0.21401137 -0.02222716 -0.092283 -0.046200905 0.378478 -0.37895763
-0.057988666 0.0075022024 -0.27540702 0.07743594 0.15269233 0.003214821 -0.35730204 0.14565295
0.1981193 -0.3224601 0.07322813 -0.08961744 0.26185337 -0.02804056 -0.24205288 0.39105266
0.37875506 -0.05076257 0.09197757 0.46833 0.027390204 -0.16901827 -0.19585772 -0.09702709
-0.08926887 0.19987035 0.047054518 0.0641039 0.29525408 -0.1011488 0.16117664 0.01488288
-0.083954096 0.17475054 0.1879968 -0.07719804 -0.2627868 0.34066972 0.04483803 0.2589389
0.47204062 -0.1648134 0.2565894 -0.12795499 0.2278198 0.48992354 0.085843 0.19627194
-0.2625617 -0.19011553 -0.79036874 0.15172863 0.047695052 -0.16708481 0.0823702 -0.05820704
-0.15902825 0.1727315 -0.41567612 -0.069009505 0.20081358 0.19767192 -0.28638497 -0.08532421
0.4896192 -0.20672089 -0.057212107 0.3462034 -0.2954073 0.08343784 0.18408117 -0.34552816
0.17307006 -0.52255416 0.37510118 -0.26192012 -0.04650584 -0.17931445 -0.057200838 -0.19512147
0.09226503 0.37728435 -0.36131054 -0.53532296 0.34208646 0.23985703 0.06934085 0.21845102
0.29928815 -0.37465665 0.051289298 -0.37184322 0.107126564 -0.037473038 -0.016857244 0.06932783
-0.06514212 0.15861006 -0.008133399 0.4342863 0.16179118 -0.09608837 -0.058681834 -0.22462632
-0.0921067 0.023002353 0.36832428 0.26737335 0.4721122 0.20121488 0.24774748 -0.062341075
0.18210669 0.13856849 0.097547755 0.29648912 0.3702715 -0.13811268 0.13890022 -0.4877845
-0.33128402 0.29150945 0.1662632 -0.20008375 -0.31055534 0.12453074 0.304339 0.25582415
-0.033555925 0.16356799 -0.57108426 -0.10069993 0.24189124 0.08716013 -0.027678845 0.29225054
-0.16185082 -0.09048616 0.014874707 -0.14431892 0.3624231 -0.09242469 0.36732706 -0.25787008
-0.09474741 -0.13265036 -0.1657035 0.2585084 -0.09834835 0.45746627 0.079911366 0.2915399
-0.09673175 0.19324183 0.16494557 0.35029897 0.09406302 -0.110733755 -0.101951316 -0.13113068
-0.07603888 0.40704644 -0.13224828 -0.21267904 0.010643137 -0.12926473 -0.41976422 0.19005015
-0.23056301 -0.22310102 -0.05039587 0.009765872 -0.13135692 0.025856677 -0.17337511 -0.05603131
-0.5558565 0.11249939 0.12394138 -0.15376602 0.060433365 0.4485145 0.14319044 0.028068576
-0.079387724 0.30681095 -0.07339409 -0.23552947 0.084815286 -0.17328373 0.17890762 0.12129865
-0.026368883 0.048620343 -0.17173135 0.0786703 -0.081360854 -0.12704325 -0.1771561 0.1404791
0.03298637 -0.2441443 0.17148541 0.046196386 -0.2568027 0.14235759 0.04431126 -0.06032607
0.11350977 -0.22790176 -0.09314912 0.027700638 0.52824664 0.0509823 0.19648392 0.05125064
0.12943769 -0.1649269 0.056883767 -0.040816832 0.02825173 -0.12338041 -0.1288584 0.22721104
0.1738327 0.33480301 -0.19617544 0.079759434 0.041229878 -0.028995104 0.10707581 0.26533136
0.16161193 -0.040504783 -0.016100816 -0.18738358 -0.04662772 0.023891695 0.0002690207 0.19050369
00000000: 15f9 ed3e b427 5bbe b467 12be f9ae a3bc
00000010: da87 5ebd 9d97 f7bd 8fe5 f73d 3e67 9b3d
00000020: fc5f 6bbe 50e4 8a3b cc25 5b3e bc15 b6bc
00000030: dffe bcbd 293d 3dbd dec7 c13e bc06 c2be
00000040: 8685 6dbd 09d5 f53b 2602 8dbe bc96 9e3d
00000050: 615b 1c3e bfaf 523b 4bf0 b6be 0c26 153e
00000060: c9df 4a3e 7d19 a5be a1f8 953d 5989 b7bd
00000070: a511 863e 51b5 e5bc b6dc 77be 0e38 c83e
00000080: 2fec c13e 6aec 4fbd bc5e bc3d f3c8 ef3e
00000090: 6c61 e03c 2013 2dbe ed8e 48be 24b6 c6bd
000000a0: 99d2 b6bd d0aa 4c3e 3dbc 403d e848 833d
000000b0: 8b2b 973e 1a27 cfbd 7d0b 253e 53d7 733c
000000c0: 20f0 abbd cef1 323e 3c82 403e 021a 9ebd
000000d0: fe8b 86be 436c ae3e 15a8 373d a493 843e
000000e0: 4faf f13e d8c4 28be b05f 833e a206 03be
000000f0: 9849 693e 42d7 fa3e 74ce af3d 83fb 483e
00000100: 7d6e 86be a5ad 42be 9b55 4abf c05e 1b3e
00000110: e35b 433d 4818 2bbe b5b1 a83d 816a 6ebd
00000120: 4dd8 22be 87e0 303e 80d3 d4be db54 8dbd
00000130: 13a2 4d3e 826a 4a3e 0da1 92be 76be aebd
00000140: 5eaf fa3e a4ae 53be 3e57 6abd 9241 b13e
00000150: a03f 97be 75e1 aa3d c67f 3c3e 11e9 b0be
00000160: 4739 313e 1cc6 05bf 430d c03e 651a 86be
00000170: e87c 3ebd 359e 37be 6d4b 6abd eccd 47be
00000180: 73f5 bc3d 6a2b c13e b2fd b8be ed0a 09bf
00000190: f525 af3e 159d 753e 9302 8e3d a0b1 5f3e
000001a0: 4c3c 993e ffd2 bfbe ba14 523d 3c62 bebe
000001b0: 2c65 db3d 547d 19bd 3418 8abc c0fb 8d3d
000001c0: 3b69 85bd ad6a 223e f341 05bc c65a de3e
000001d0: 96ac 253e fbc9 c4bd 5d5c 70bd 7104 66be
000001e0: 70a2 bcbd 6e6f bc3c 0095 bc3e 29e5 883e
000001f0: b1b8 f13e 460b 4e3e 84b1 7d3e 5b59 7fbd
00000200: 2d7a 3a3e e6e4 0d3e 1ec7 c73d 6ccd 973e
00000210: 3a94 bd3e 696d 0dbe dc3b 0e3e e4be f9be
00000220: 0f9e a9be ba40 953e e640 2a3e c1e2 4cbe
00000230: 1c01 9fbe f909 ff3d 52d2 9b3e 62fb 823e
00000240: f071 09bd 5e7e 273e 9432 12bf c43b cebd
00000250: 56b2 773e 0381 b23d bfbe e2bc dda1 953e
00000260: 39bc 25be cf50 b9bd 0bb5 733c 57c8 13be
00000270: 858f b93e 2849 bdbd 4b12 bc3e 8c07 84be
00000280: ee0a c2bd 7fd5 07be 2eae 29be 375b 843e
00000290: dc6a c9bd 0539 ea3e 92a8 a33d b844 953e
000002a0: 4c1b c6bd 30e1 453e 7ee7 283e 635a b33e
000002b0: 1da4 c03d 61c8 e2bd dacb d0bd 1f47 06be
000002c0: 46ba 9bbd 6468 d03e 186c 07be 89c8 59be
000002d0: 8d60 2e3c f95d 04be 56eb d6be 829c 423e
000002e0: b618 6cbe 9874 64be e66b 4ebd 0901 203c
000002f0: 6e82 06be 62d1 d33c 3f89 31be 1681 65bd
00000300: 9d4c 0ebf 1566 e63d fad4 fd3d d774 1dbe
00000310: fa88 773d b1a3 e53e 84a0 123e 12f0 e53c
00000320: 0896 a2bd 5316 9d3e a44f 96bd a32e 71be
00000330: a3b3 ad3d 4a71 31be 8f33 373e 6d6b f83d
00000340: 8e03 d8bc 2026 473d 58da 2fbe e51d a13d
00000350: 85a0 a6bd a017 02be 6968 35be c1d9 0f3e
00000360: b71c 073d f700 7abe df99 2f3e 6c38 3d3d
00000370: a57b 83be 30c6 113e b97f 353d 7818 77bd
00000380: cf77 e83d 145f 69be f7c4 bebd 73ec e23c
00000390: 2c3b 073f d1d2 503d 1533 493e 31ec 513d
000003a0: 508b 043e 99e2 28be f4fe 683d 8d2f 27bd
000003b0: 2c70 e73c deae fcbd 75f3 03be 03aa 683e
000003c0: 3301 323e 4d6b ab3e 37e2 48be ea58 a33d
000003d0: a9e0 283d 2487 edbc 904a db3d 83d9 873e
000003e0: 997d 253e 58e8 25bd dce5 83bc 7be1 3fbe
000003f0: b5fc 3ebd 84b8 c33c 590b 8d39 6613 433e

b3 f4 [32]
-0.07594818 -0.012595966 -0.035949312 -0.08032924 -0.025744038 0.03158888 -0.08102409 -0.04601235
-0.011915262 -0.054101218 -0.07614002 -0.057012483 0.0571153 -0.054819357 0.0011693359 0.017148186
-0.15193744 0.10654203 -0.12323107 -0.09624961 -0.025714176 -0.08716029 0.06478939 -0.083414495
0.0056564384 -0.07002794 -0.07874288 0.07735968 -0.026563138 -0.046416778 0.14984201 -0.03973118
00000000: b88a 9bbd 505f 4ebc 963f 13bd a883 a4bd
00000010: 29e5 d2bc 5763 013d f5ef a5bd 7277 3cbd
00000020: 3b38 43bc 3d99 5dbd 4cef 9bbd ec85 69bd
00000030: bcf1 693d 438a 60bd 6744 993a 5a7a 8c3c
00000040: 7d95 1bbe b532 da3d 9260 fcbd 841e c5bd
00000050: 89a6 d2bc 1881 b2bd 4db0 843d 38d5 aabd
00000060: a559 b93b cf6a 8fbd f243 a1bd c06e 9e3d
00000070: f09a d9bc 851f 3ebd 2f70 193e 29bd 22bd

W4 f4 [64, 32, 3, 3]
0.08356113 -0.29486635 -0.2314122 0.06699994 -0.10022281 0.14438687 -0.06969338 0.18753389
-0.027582753 0.018129628 -0.21431513 0.06482656 -0.059218492 0.17750198 -0.16902272 0.13113938
0.17679787 0.23156929 -0.03012095 -0.21605018 0.24598095 0.069399014 0.29747975 0.06385998
-0.4987026 0.09207227 -0.4899534 0.068706535 0.09890321 -3.615439e-05 -7.8327776e-07 0.24617298
-0.0049766805 0.052275024 0.3347631 -5.8832193e-05 -0.0037907015 -0.45657623 -0.2072618 -0.046893787
0.01119758 0.20379983 -0.09990016 -0.15425213 -0.2548699 0.036101513 -0.28985122 -0.32116285
0.22270988 0.34466857 0.14254321 0.18648225 0.44111222 -0.7441554 0.07831657 -0.0045663193
-0.16585894 -0.29618257 -0.04312185 0.67990696 0.056258284 0.18543889 -0.20001031 0.15182742
0.42492384 0.11407422 -0.06490745 -0.26053566 0.033138946 0.0751754 -0.2859145 -0.112169236
0.056240007 -0.19250216 -0.1271845 0.044924643 0.21687569 0.2473865 0.06548548 0.48459703
0.18691376 0.23888041 0.15964219 0.09376194 0.08711451 0.29046473 0.11719625 0.15960386
0.01754479 0.12274338 -0.13262919 0.055349417 -0.085892856 0.13953425 0.20819232 0.23269215
-0.26743242 0.2547088 -0.063376255 -0.058517497 0.06442945 -1.7639162e-05 0.3190659 0.15799502
-0.05997754 -6.003775e-05 0.07059937 0.1403072 0.043575563 0.35040087 0.092197046 0.2660447
0.3424553 0.044666078 0.04982614 0.1392166 0.39612025 0.42209864 0.13855927 0.29838356
-0.061940406 -0.18478179 0.06769843 0.13666631 0.00821358 0.25287813 0.2549368 -0.056451626
-0.32272083 0.2696967 0.20310171 -0.1019232 0.16697323 0.34388924 -0.30554143 0.31890243
0.09244971 0.10639806 0.29399136 -0.02476232 -0.2674761 0.26838824 -0.0702341 0.32690942
0.5322938 -0.44768378 -0.18682356 -0.32567698 0.39501545 -0.09449973 -0.09654563 0.17915088
-0.5036142 0.48130977 0.37438738 -0.38819858 0.48640397 -0.19808964 0.18244423 -0.3354549
-0.23604685 0.3357736 -0.21734156 0.020215068 -0.30359894 -0.16419518 -0.056413624 0.09900566
-0.1524179 0.17779815 0.11069474 -0.11142756 0.1046326 -0.10785993 0.1561266 -0.16611795
-0.009559932 -0.30400732 0.007387856 -0.018987602 0.014943162 0.05844333 -0.101484 0.19036542
-0.15472136 -0.369494 0.043733303 -0.029321576 0.35289663 -0.21927729 -0.26600674 -0.37460962
-0.13140412 -0.15361547 -0.13598046 0.094647124 0.031577017 -0.04660764 0.27374 -0.00030855794
-0.04844496 -0.39918992 0.06094127 -0.7322645 0.27524582 0.31221548 0.23336503 0.06271089
0.398703 9.754672e-06 -0.38078693 -0.031422544 -0.010559797 0.07248598 0.04968019 0.019405013
-0.28546533 -0.2740613 -0.19035411 -0.0547069 0.3629393 -0.04312572 0.10741303 0.010940013
-0.07265546 -0.062200956 -0.11127544 -0.07633458 0.25786087 -0.24105875 -0.014723754 0.10823834
-0.013307333 -0.081509255 0.11913923 -0.08770548 0.27874532 -0.2733903 0.08494989 0.053440906
0.18891817 0.19828974 -0.094606735 0.16036981 -0.31263632 0.18002659 0.07748929 0.13200682
0.050811842 -0.3959726 -0.089609824 -0.30798385 -0.19509801 0.065917194 -0.40180454 -0.05683084
00000000: 1922 ab3d b9f8 96be 52f7 6cbe 4437 893d
00000010: 9e41 cdbd 27da 133e 67bb 8ebd e208 403e
00000020: 3af5 e1bc 9684 943c 6d75 5bbe cac3 843d
00000030: 178f 72bd 14c3 353e 4b14 2dbe 6749 063e
00000040: 800a 353e 8020 6d3e 36c0 f6bc 423c 5dbe
00000050: 6ee2 7b3e 1221 8e3d 444f 983e 05c9 823d
00000060: f255 ffbe 6390 bc3d 2cdb fabe 03b6 8c3d
00000070: c48d ca3d 7ba4 17b8 7042 52b5 c514 7c3e
00000080: 6c13 a3bb 561e 563d 1266 ab3e 96c2 76b8
00000090: 6b6d 78bb 5cc4 e9be 703c 54be b313 40bd
000000a0: 0e76 373c e7b0 503e 7598 ccbd 45f4 1dbe
000000b0: 4f7e 82be 2edf 133d 6167 94be 756f a4be
000000c0: 0f0e 643e 6678 b03e d9f6 113e 34f5 3e3e
000000d0: 76d9 e13e f880 3ebf 7064 a03d 10a1 95bb
000000e0: edd6 29be 3ea5 97be 89a0 30bd 620e 2e3f
000000f0: 166f 663d b1e3 3d3e 81cf 4cbe a678 1b3e
00000100: 9e8f d93e bf9f e93d 32ee 84bd ee64 85be
00000110: b4bc 073d 8ff5 993d 6363 92be fcb8 e5bd
00000120: ec5b 663d 491f 45be a73c 02be e702 383d
00000130: a914 5e3e e352 7d3e 401d 863d 1a1d f83e
00000140: 5266 3f3e 119d 743e 3e79 233e 4306 c03d
00000150: 1869 b23d cbb7 943e 9604 f03d 326f 233e
00000160: 17ba 8f3c e260 fb3d f2cf 07be 12b6 623d
00000170: 98e8 afbd 11e2 0e3e 5e30 553e da46 6e3e
00000180: e7ec 88be 3169 823e 69cb 81bd 0bb0 6fbd
00000190: 96f3 833d d0f7 93b7 9b5c a33e 72c9 213e
000001a0: 02ab 75bd 0bd1 7bb8 6796 903d b1ac 0f3e
000001b0: 4a7c 323d be67 b33e ced1 bc3d 0337 883e
000001c0: 4d56 af3e c7f3 363d 7f16 4c3d cc8e 0e3e
000001d0: 46d0 ca3e 501d d83e 7be2 0d3e bbc5 983e
000001e0: 39b5 7dbd 7037 3dbe 79a5 8a3d 41f2 0b3e
000001f0: 4092 063c 3e79 813e 1487 823e d239 67bd
00000200: aa3b a5be b015 8a3e e5f9 4f3e 1cbd d0bd
00000210: 08fb 2a3e 4012 b03e ed6f 9cbe 2e47 a33e
00000220: 4656 bd3d 3ae7 d93d 0986 963e 59da cabc
00000230: a1f2 88be 2f6a 893e e5d6 8fbd ac60 a73e
00000240: 6844 083f cf36 e5be ad4e 3fbe 22bf a6be
00000250: 773f ca3e 1389 c1bd b7b9 c5bd 5473 373e
00000260: dcec 00bf 3c6e f63e b4af bf3e f7c1 c6be
00000270: f109 f93e 03d8 4abe a9d2 3a3e bfc0 abbe
00000280: 44b6 71be 84ea ab3e c98e 5ebe 129a a53c
00000290: 5271 9bbe c822 28be f911 67bd 7bc3 ca3d
000002a0: 7013 1cbe b810 363e edb3 e23d 2234 e4bd
000002b0: 9e49 d63d abe5 dcbd a7df 1f3e d31a 2abe
000002c0: 43a1 1cbc d9a6 9bbe d415 f23b e38b 9bbc
000002d0: 2ad4 743c 4662 6f3d d8d6 cfbd 27ef 423e
000002e0: 476f 1ebe 512e bdbe b121 333d cd33 f0bc
000002f0: deae b43e 3a8a 60be 0932 88be d5cc bfbe
00000300: cd8e 06be 604d 1dbe 763e 0bbe 5ad6 c13d
00000310: e756 013d a7e7 3ebd a627 8c3e f2c5 a1b9
00000320: 396e 46bd 9f62 ccbe 8e9d 793d b075 3bbf
00000330: 05ed 8c3e b5da 9f3e 3ef7 6e3e 916e 803d
00000340: cd22 cc3e ffa7 2337 81f6 c2be edb4 00bd
00000350: 0003 2dbc 8873 943d 747d 4b3d 43f7 9e3c
00000360: 8328 92be c351 8cbe 30ec 42be 5814 60bd
00000370: 2ed3 b93e 98a4 30bd 5dfb db3d be3d 333c
00000380: 63cc 94bd 6ec6 7ebd 61e4 e3bd 4e55 9cbd
00000390: 5706 843e 1bd8 76be e63b 71bc 10ac dd3d
000003a0: 0007 5abc 53ee a6bd 45ff f33d ee9e b3bd
000003b0: b5b7 8e3e d0f9 8bbe 35fa ad3d dae4 5a3d
000003c0: c473 413e 770c 4b3e 2dc1 c1bd fc37 243e
000003d0: de11 a0be e458 383e b4b2 9e3d cc2c 073e
000003e0: 1420 503d ecbc cabe 5b85 b7bd 0fb0 9dbe
000003f0: c6c7 47be 98ff 863d 53b9 cdbe 74c7 68bd

b4 f4 [64]
-0.017480897 -0.058676183 0.11260976 0.029616034 -0.10637818 -0.023083314 0.03590472 0.06655964
-0.04951574 -0.06526353 -0.07103338 -0.016158326 0.041852172 -0.1528736 -0.079931706 0.036554713
-0.04834983 -0.06973471 -0.007952293 0.006293823 -0.07716064 -0.052610315 -0.031895563 -0.0034282473
-0.09901363 -0.0910507 -0.034727458 -0.012457577 -0.1638194 -0.0077576367 -0.06873165 -0.15267187
0.03729517 -0.050771177 -0.053646725 -0.09809823 -0.08768524 -0.015629096 0.07947232 0.029064761
0.0962315 0.009064636 -0.019616555 0.1384154 0.19149263 -0.032372277 -0.08374802 -0.11864013
0.08907302 -0.024555651 -0.07771498 0.04026685 -0.007073754 0.08222027 -0.11463706 -0.07599701
-0.015634043 0.04311641 0.0076958486 -0.025598904 0.04059629 -0.13482168 -0.058534432 -0.022470396
00000000: 1934 8fbc 7056 70bd f29f e63d 539d f23c
00000010: cedc d9bd 3819 bdbc d410 133d 6c50 883d
00000020: 04d1 4abd e3a8 85bd f379 91bd 775e 84bc
00000030: 2f6d 2b3d e68a 1cbe 3cb3 a3bd 65ba 153d
00000040: 790a 46bd 12d1 8ebd 564a 02bc 6a3c ce3b
00000050: 6606 9ebd ea7d 57bd eca4 02bd 72ac 60bb
00000060: a8c7 cabd ca78 babd 613e 0ebd dd1a 4cbc
00000070: 46c0 27be c633 febb 2ec3 8cbd 0456 1cbe
00000080: d2c2 183d 70f5 4fbd abbc 5bbd bae7 c8bd
00000090: 5294 b3bd 9708 80bc 62c2 a23d 3919 ee3c
000000a0: 0515 c53d d783 143c e6b2 a0bc c4bc 0d3e
000000b0: a516 443e cb98 04bd 1584 abbd 99f9 f2bd
000000c0: ea6b b63d ef28 c9bc 0829 9fbd daee 243d
000000d0: f3ca e7bb 1a63 a83d d6c6 eabd 52a4 9bbd
000000e0: f712 80bc d59a 303d 752d fc3b cbb4 d1bc
000000f0: 4c48 263d b20e 0abe cdc1 6fbd d613 b8bc

W5 f4 [256, 10]
-0.052410863 0.15275791 0.24688226 -0.058043573 -0.01056482 -0.18278213 0.0698404 0.1483425
-0.083346754 0.32983357 0.071175635 -0.024443788 -0.3058427 0.030928237 0.26589143 0.20141149
0.036658883 0.3288902 0.0124193 0.25502068 0.5090619 -0.27827334 -0.29306102 -0.21193588
0.048053462 0.009368957 -0.17652468 0.050986037 -0.057163306 0.12513119 0.008984953 -0.0024749523
0.21578877 -0.06346847 -0.24057774 0.071278594 -0.10633706 -0.5086599 0.1380401 0.20182487
-0.09422655 0.07737632 0.20840748 -0.254475 0.058809634 0.349222 -0.14322118 0.3127114
0.004130355 0.37681147 -0.024315976 0.12494569 -0.121639594 0.19404086 -0.15320314 -0.027600262
0.20180959 0.3239605 -0.25701886 -0.20678927 -0.02838548 0.2664153 0.46822292 -0.0061831833
0.03683988 -0.06832892 -0.20643759 0.16530605 0.22372952 -0.072122365 0.081234604 -0.13487382
0.48212183 -0.13305874 0.034606207 0.18065141 0.090892635 0.19412927 -0.52583414 -0.043249987
-0.30132836 0.03376474 0.19154386 0.12264416 -0.09432237 0.022996968 0.1237336 0.28607494
0.02835923 -0.3298445 -0.35490873 -0.097967826 -0.16092521 0.34267378 0.23315227 0.020872548
0.15580143 -0.35313296 0.068917274 -0.16419762 0.054991364 0.14857657 0.17009388 0.06818586
-0.21414143 -0.17909777 0.014487279 0.106490955 -0.1933635 0.13635772 -0.015093007 -0.11280607
0.0015229417 -0.047528572 0.39101216 -0.38251528 0.30556795 -0.09984321 -0.16097105 -0.029583715
0.13837524 0.18532881 0.13651574 -0.073182926 0.11258408 -0.060749695 -0.26885825 0.11138265
-0.040048126 0.057361685 -0.17455131 -0.4955134 0.3261396 0.09989765 3.0665466e-05 -0.018246213
0.05678107 0.2318772 -0.47102803 0.49301705 0.19403799 -0.09033401 -0.040794164 -0.010144574
0.39782956 0.13040024 0.07757439 0.00076182856 0.063276954 0.26762685 -0.044156242 0.16071376
-0.38785544 0.031887505 0.12086739 -0.07778763 0.15306827 -0.015898848 -0.3859966 -0.32255515
-0.034427885 -0.19367802 -0.022141758 0.011337649 0.24196114 0.32652247 -0.055255998 -0.15710202
-0.3440619 0.42136514 -0.091508694 0.17358956 -0.011993728 -0.056201354 -0.1734377 -0.006254504
0.10068367 0.07807435 0.075585976 0.09464102 0.06175955 -0.09911368 0.014644119 0.44137868
-0.19274409 0.289658 -0.13156186 -0.22510302 0.30316478 0.115103535 0.02382847 -0.45038503
0.02040028 0.12591718 -0.08331235 0.1701547 -0.13569742 -0.08284311 0.63205475 -0.078811094
0.08793859 -0.0021044046 0.28214487 -0.010294997 0.024722496 0.2317066 0.10399436 0.10729023
-0.04386925 0.029806241 0.16165186 -0.06619078 0.4794848 0.04848492 -0.05677376 -0.20529908
-0.24687055 -0.06478181 -0.13508841 -0.023827888 -0.0742015 0.01573539 0.42961165 -0.15916851
0.18407951 0.16072263 0.19703981 0.12772499 -0.22290123 -0.23696332 -0.07780673 -0.1938465
-0.2890277 -0.007005369 -0.23905496 -0.37984416 0.38677898 -0.0984221 0.38268062 0.4247515
0.097576946 0.1843521 0.009544091 -0.18428682 0.08272308 -0.33778596 -0.0609669 -0.11580904
-0.091654375 -0.17005046 -0.029579025 0.10050604 -0.21737356 -0.18761522 0.15157352 0.09131653
00000000: c6ac 56bd 926c 1c3e b4ce 7c3e 19bf 6dbd
00000010: 1118 2dbc 3d2b 3bbe 7c08 8f3d 19e7 173e
00000020: b4b1 aabd f2df a83e 88c4 913d 573e c8bc
00000030: 6a97 9cbe 375d fd3c ec22 883e d03e 4e3e
00000040: a027 163d 4c64 a83e 527a 4b3c 1292 823e
00000050: e151 023f d879 8ebe 180c 96be b805 59be
00000060: b5d3 443d 4180 193c e3c2 34be bcd6 503d
00000070: 1224 6abd 6422 003e a035 133c cf32 22bb
00000080: bbf7 5c3e c2fb 81bd 035a 76be 83fa 913d
00000090: 3fc7 d9bd 8937 02bf 625a 0d3e 2eab 4e3e
000000a0: d9f9 c0bd 7a77 9e3d c568 553e 8c4a 82be
000000b0: 5fe2 703d 3acd b23e 93a8 12be b51b a03e
000000c0: ee57 873b 6fed c03e 4c32 c7bc 87e3 ff3d
000000d0: 2e1e f9bd a6b2 463e 49e1 1cbe f219 e2bc
000000e0: 2ca7 4e3e 27de a53e fa97 83be 91c0 53be
000000f0: ab88 e8bc 9667 883e eaba ef3e 4d9c cabb
00000100: 6ae5 163d 08f0 8bbd 6064 53be fd45 293e
00000110: 5a19 653e e4b4 93bd 545e a63d 5d1c 0abe
00000120: acd8 f63e 8d40 08be 3dbf 0d3d affc 383e
00000130: eb25 ba3d d3c9 463e 119d 06bf e626 31bd
00000140: b647 9abe e54c 0a3d 1324 443e dd2c fb3d
00000150: 162c c1bd 2364 bc3c 0b68 fd3d 6a78 923e
00000160: 9e51 e83c 61e1 a8be 99b6 b5be 5ba3 c8bd
00000170: 94c9 24be f072 af3e 78bf 6e3e e8fc aa3c
00000180: 698a 1f3e d8cd b4be 8024 8d3d 6c23 28be
00000190: a03e 613d 7524 183e 172d 2e3e 07a5 8b3d
000001a0: e447 5bbe 6865 37be 0d5c 6d3c ee17 da3d
000001b0: 1501 46be 5ca1 0b3e a948 77bc de06 e7bd
000001c0: 729d c73a 52ad 42bd bf32 c83e 0bd9 c3be
000001d0: 6773 9c3e 997a ccbd 98d5 24be 8c59 f2bc
000001e0: 3db2 0d3e d6c6 3d3e c8ca 0b3e eee0 95bd
000001f0: 7b92 e63d acd4 78bd caa7 89be 961c e43d
00000200: 8109 24bd 16f4 6a3d 94bd 32be efb3 fdbe
00000210: c5fb a63e 2497 cc3d cb9e 0038 1579 95bc
00000220: 4493 683d 3771 6d3e 962a f1be bb6c fc3e
00000230: e5b1 463e 0a01 b9bd c817 27bd 6d35 26bc
00000240: 51b0 cb3e a487 053e 52df 9e3d 73b5 473a
00000250: 5997 813d 6306 893e 2ddd 34bd 2692 243e
00000260: fd94 c6be 799c 023d 5289 f73d 1f4f 9fbd
00000270: eebd 1c3e 4d3e 82bc 59a1 c5be f325 a5be
00000280: 4104 0dbd 8853 46be a262 b5bc 8cc1 393c
00000290: a9c4 773e f42d a73e 1d54 62bd 5adf 20be
000002a0: e228 b0be 2cbd d73e e968 bbbd 76c1 313e
000002b0: 5781 44bc 6433 66bd a799 31be 95f2 ccbb
000002c0: 3d33 ce3d 72e5 9f3d d2cc 9a3d 27d3 c13d
000002d0: 95f7 7c3d 1dfc cabd e3ed 6f3c 63fc e13e
000002e0: b55e 45be 0e4e 943e 27b8 06be 6881 66be
000002f0: 6a38 9b3e 67bb eb3d ec33 c33c de98 e6be
00000300: 7d1e a73c 6ff0 003e aa9f aabd 093d 2e3e
00000310: 44f4 0abe a6a9 a9bd 57ce 213f b667 a1bd
00000320: 2619 b43d 0dea 09bb 4b75 903e 59ac 28bc
00000330: d586 ca3c 7f44 6d3e fffa d43d fbba db3d
00000340: 3eb0 33bd 382c f43c 1188 253e 088f 87bd
00000350: 087f f53e 2098 463d 9a8b 68bd ec39 52be
00000360: a2cb 7cbe 53ac 84bd 9e54 0abe b432 c3bc
00000370: f5f6 97bd 81e7 803c 0ff6 db3e 12fd 22be
00000380: 577f 3c3e 7994 243e cec4 493e 57ca 023e
00000390: 3840 64be 83a6 72be 2359 9fbd b27f 46be
000003a0: 70fb 93be 4b8d e5bb d3ca 74be ef7a c2be
000003b0: e507 c63e 8791 c9bd b7ee c33e 0779 d93e
000003c0: 6cd6 c73d ccc6 3c3e d25e 1c3c afb5 3cbe
000003d0: b86a a93d 48f2 acbe 6eb8 79bd 4a2d edbd
000003e0: 4ab5 bbbd b521 2ebe b64f f2bc 1cd6 cd3d
000003f0: 2d97 5ebe 341e 40be 1736 1b3e 2904 bb3d

b5 f4 [10]
-0.035520665 -0.04445092 0.0015929666 0.058702677 0.14845982 -0.08827784 0.047497958 0.040971614
-0.0156877 -0.08325072
00000000: 1e7e 11bd 2b12 36bd 17cb d03a 3872 703d
00000010: da05 183e 03cb b4bd 388d 423d dad1 273d
00000020: 7e83 80bc 5a7f aabd
